train/group_selfies_vae_train/polymerization_step_growth_750k/divergence_weight_2.949_latent_dim_104_learning_rate_0.003/check_point/epoch_54/property_predictor.pth (torch, 12338 bytes, 11 tensors)

property_network_module.0.weight f4 [1, 104]
0.008573513 -0.031659704 0.00017446803 0.01546994 0.0039972337 0.0072533633 0.001024746 0.010469592
0.0015129589 -0.00064771465 0.20865747 0.0045038257 -0.00096787873 -0.0012964335 0.0094969375 -0.0004856452
0.0012064931 -0.00014874805 0.002905882 0.0010730781 -0.011144512 -0.0060935263 0.0021051276 0.0031878997
0.0009185637 0.010200191 -0.00564691 0.03503463 0.15579815 0.0076886225 -0.0030709514 -0.00010368
-0.0059066783 0.0041635125 -0.0039822166 -0.81155294 -0.0038970704 0.0015595037 -0.061179817 -0.013877356
-0.0009292069 -0.011483534 0.008166934 -0.0028386198 -0.00094047905 -0.004480365 -0.007825526 0.024304347
-0.001761131 0.21864118 -0.03046098 -0.011378327 -0.0015601316 0.0036701811 -0.0017893077 -0.0034447925
-0.038273577 -0.007297874 0.023091061 -0.00032223883 -0.04612756 0.009442392 0.038028657 0.008480096
0.011019126 0.0016688296 -0.0042770877 -0.012694743 -0.045893822 -0.0041440716 -0.013164978 -0.0038215453
0.00051903084 0.0016121116 -0.001835752 -0.009606343 0.0026201408 -0.005306682 0.089402564 0.008356482
0.0043991297 0.0013305239 0.0075893146 -0.009782652 0.0042190263 0.009500839 0.004783093 0.005869079
-0.01326957 -0.011647152 0.001341708 0.014315964 -0.0014699985 -0.005236234 0.004421427 0.010412928
0.0023965533 0.004066245 -0.008078873 -0.008772324 0.0022995884 0.010922971 0.005272998 -0.0011492355
00000000: eb77 0c3c 9bad 01bd 68f1 3639 a275 7d3c
00000010: 3afb 823b 9fad ed3b c550 863a a788 2b3c
00000020: 7a4e c63a 65cb 29ba 4eaa 553e d494 933b
00000030: 3eb9 7dba 17ed a9ba 0b99 1b3c 329e feb9
00000040: 3123 9e3a 40f9 1bb9 9c70 3e3b 87a6 8c3a
00000050: 7997 36bc 34ac c7bb 2ef6 093b 15ec 503b
00000060: c4cb 703a b41e 273c b709 b9bb 7980 0f3d
00000070: 8d89 1f3e d7f0 fb3b 0442 49bb c76e d9b8
00000080: cf8c c1bb 136e 883b 417d 82bb efc1 4fbf
00000090: fe65 7fbb 4368 cc3a b097 7abd da5d 63bc
000000a0: 0596 73ba 6f25 3cbc 9bce 053c 2308 3abb
000000b0: 7b8a 76ba 07d0 92bb a336 00bc e919 c73c
000000c0: c0d5 e6ba 79e3 5f3e 4e89 f9bc 2a6c 3abc
000000d0: 547d ccba 6c87 703b 3487 eaba 07c2 61bb
000000e0: c1c4 1cbd 0123 efbb 7729 bd3c 2af2 a8b9
000000f0: 41f0 3cbd 43b4 1a3c f0c3 1b3d 1af0 0a3c
00000100: 9089 343c a1bc da3a d026 8cbb 9dfd 4fbc
00000110: 29fb 3bbd feca 87bb ebb1 57bc e472 7abb
00000120: 920f 083a 7d4d d33a 9e9d f0ba ec63 1dbc
00000130: abb6 2b3b ade3 adbb b118 b73d a0e9 083c
00000140: 9326 903b f964 ae3a c9af f83b 6b47 20bc
00000150: c23f 8a3b 68a9 1b3c 7ebb 9c3b 6751 c03b
00000160: 9c68 59bc b2d3 3ebc 40dc af3a 818d 6a3c
00000170: f7ac c0ba b794 abbb 9ee1 903b fc9a 2a3c
00000180: 7e0f 1d3b 233e 853b 405d 04bc cbb9 0fbc
00000190: b1b4 163b 43f6 323c 1dc9 ac3b f2a1 96ba

property_network_module.1.weight f4 [1, 104]
0.005630245 0.002753508 0.006242423 -0.0141349705 0.010949712 -0.0029151933 0.009670805 -0.009860476
0.0019757997 -0.0048243925 0.442659 0.009210948 0.0042504254 -0.008918156 0.0067185257 0.004122721
0.0029224558 0.021342248 -0.01025195 -0.0011422542 0.0014387327 -0.0014410174 0.00657207 0.0064271516
-0.0043848013 -0.0048913765 -0.0026540195 -0.0197341 -0.45970634 -0.0035005356 0.0013758809 0.00016693074
-0.0065058214 0.0040040636 0.0011967975 0.016633494 -0.0065739714 0.001113604 0.0501508 0.003802181
-0.002592376 -0.0023726972 -0.002749747 -0.0013879252 0.0025286549 0.0150745 0.0071067763 0.0053190365
-0.002701185 0.26940247 -0.0054678214 -0.0024478657 -0.0054284967 0.0069816993 0.010197252 0.0058716373
0.032496314 -0.0051473626 0.0029428857 0.0010328292 -0.18784483 -0.009727992 -0.25534767 0.026715294
-0.003412997 0.008712829 -0.003139341 0.0137366 0.011199189 -0.00059904525 -0.0015611941 -0.0064698663
-0.007865309 -0.07303689 -0.0027946117 -0.004764666 0.008802072 0.006706769 -0.21067418 0.008007341
0.0028669562 -0.00025036605 0.0045439834 -0.0051849396 -0.010648831 0.014109063 -0.011306101 -0.01354709
0.0029162052 -0.0038597807 0.0012347832 -0.017972296 -0.004891005 0.00862878 -0.0052672373 0.0033390285
0.013883799 0.005899763 -0.010195095 0.0037329148 -0.012972416 0.004334556 -0.004678464 -0.008969588
00000000: eb7d b83b 3374 343b 3d8d cc3b 5d96 67bc
00000010: 6c66 333c d40c 3fbb 4c72 1e3c d58d 21bc
00000020: 6b7c 013b f015 9ebb 33a4 e23e 84e9 163c
00000030: 2747 8b3b 751d 12bc 1427 dc3b e417 873b
00000040: ac86 3f3b f0d5 ae3c cbf7 27bc b1b7 95ba
00000050: dc93 bc3a 85e0 bcba 855a d73b db9a d23b
00000060: 61ae 8fbb d747 a0bb 0fef 2dbb 68a9 a1bc
00000070: a15e ebbe 3e69 65bb e756 b43a 210a 2f39
00000080: c92e d5bb 8534 833b dcdd 9c3a f742 883c
00000090: 786a d7bb 5af6 913a ed6a 4d3d 032e 793b
000000a0: dae4 29bb 417f 1bbb 1935 34bb 0beb b5ba
000000b0: cab7 253b 09fb 763c f6df e83b 504b ae3b
000000c0: 5d06 31bb 1fef 893e 692b b3bb 5f6c 20bb
000000d0: 88e1 b1bb bdc6 e43b 6012 273c dd66 c03b
000000e0: db1a 053d 35ab a8bb 6edd 403b ff5f 873a
000000f0: 655a 40be 2862 1fbc eebc 82be 08da da3c
00000100: 96ac 5fbb 41c0 0e3c 67bd 4dbb 7a0f 613c
00000110: ce7c 373c 3f09 1dba fba0 ccba 2c01 d4bb
00000120: 7fdd 00bc 5d94 95bd ce25 37bb ea20 9cbb
00000130: 9136 103c 75c4 db3b f9ba 57be 3931 033c
00000140: 8be3 3b3b 9043 83b9 b2e5 943b 6de6 a9bb
00000150: 6f78 2ebc b329 673c 3a3d 39bc 9df4 5dbc
00000160: ce1d 3f3b 60f4 7cbb 73d8 a13a a33a 93bc
00000170: b944 a0bb ba5f 0d3c ca98 acbb 9ad3 5a3b
00000180: e078 633c cd52 c13b 5409 27bc eba3 743b
00000190: 428a 54bc e408 8e3b cd4d 99bb 2ef5 12bc

property_network_module.2.weight f4 [1, 104]
-0.0004557414 0.0048307884 0.0026127887 -0.020303557 0.002532862 -0.00044425952 -0.006549529 -0.006482744
-0.0022417773 0.009102601 0.5609636 -0.0031143352 -0.01619287 0.0032238066 0.011238833 0.008025289
-0.0052752397 0.020976804 -0.0062027057 0.00028373252 0.0051982687 -0.0037119864 0.010727778 0.01019242
-0.005839709 -0.0028674584 -0.009961746 -0.013733648 0.43665823 -0.0027607535 0.00022398659 0.0022849222
-0.008175867 -0.0060408604 -0.011301074 0.0073025995 -0.0010994439 -0.0036216264 0.0146242445 -0.0016782235
-0.0027099312 0.008185093 -0.0036546784 0.003278622 0.009949514 0.018386068 0.0045212456 -0.010436564
-0.007764358 0.37579608 -0.012657825 0.003771656 -0.012147802 0.0018128824 -0.0034509634 0.017058605
0.022852933 0.009019358 -0.0037483617 0.0075298203 -0.0028000602 -0.00622058 -0.04258927 0.016829783
0.002039569 0.0006069071 -0.0005293158 0.006316899 0.22110371 0.004352148 0.017423324 0.00205924
0.00943474 -0.04979816 -0.000350402 -0.0044526686 0.007883953 0.0008778403 -0.44158754 0.0019144738
0.0038083685 0.004079923 -0.0014308048 -0.00013766848 -0.0012552048 0.016462544 -0.00053557486 -0.006073821
0.0018882095 -0.00333773 -0.0022410157 0.048470862 -0.005291313 0.0028299396 0.000376627 -0.0005338207
0.0047242236 0.00026948404 -0.0103713665 -0.009787095 -0.0012565865 0.0057438654 -0.009528536 -0.0021655886
00000000: 93f0 eeb9 974b 9e3b 523b 2b3b a553 a6bc
00000010: 5ffe 253b 81eb e8b9 6e9d d6bb 336d d4bb
00000020: c8ea 12bb 1323 153c 4f9b 0f3f e019 4cbb
00000030: e9a6 84bc 8046 533b 1523 383c 807c 033c
00000040: ebdb acbb 8cd7 ab3c 1140 cbbb efc1 9439
00000050: 3d56 aa3b cc44 73bb 90c3 2f3c 1cfe 263c
00000060: 085b bfbb f8eb 3bbb 9736 23bc 1803 61bc
00000070: ab91 df3e c2ed 34bb f1dd 6a39 a2be 153b
00000080: 12f4 05bc 69f2 c5bb 2428 39bc a54a ef3b
00000090: 371b 90ba cf58 6dbb 879a 6f3c d6f7 dbba
000000a0: 1a99 31bb c51a 063c 5483 6fbb 26de 563b
000000b0: 4903 233c 619e 963c f526 943b 1ffe 2abc
000000c0: 286c febb 5868 c03e c462 4fbc e32d 773b
000000d0: 9307 47bc 3d9e ed3a 8f29 62bb 7dbe 8b3c
000000e0: 1336 bb3c eec5 133c 13a7 75bb b6bc f63b
000000f0: 3781 37bb 02d6 cbbb 1672 2ebd 9dde 893c
00000100: 4aaa 053b d918 1f3a c8c1 0aba fdfd ce3b
00000110: 0369 623e 779c 8e3b 5cbb 8e3c 50f4 063b
00000120: 2b94 1a3c 28f9 4bbd 29b6 b7b9 b1e7 91bb
00000130: b22b 013c de1e 663a c317 e2be 15ef fa3a
00000140: d295 793b e0b0 853b d889 bbba 1a5b 10b9
00000150: af85 a4ba 75dc 863c d265 0cba e706 c7bb
00000160: cc7d f73a d1bd 5abb 01de 12bb 6289 463d
00000170: c062 adbb 8276 393b 0576 c539 1af0 0bba
00000180: a9cd 9a3b 8949 8d39 aaec 29bc 0d5a 20bc
00000190: 0cb4 a4ba 0937 bc3b 941d 1cbc 8cec 0dbb

property_network_module.3.weight f4 [1, 104]
0.0015226047 -0.019118037 -0.009137616 0.0030904836 -0.0028428256 -0.0009278754 0.0014526825 -0.0027903672
-0.0132709835 0.014429044 0.17287116 0.0033270686 -0.030116467 0.0008758627 -0.016844451 0.0014938506
-0.0029843578 0.00647248 0.011776961 -0.0008879193 0.0015845996 0.00938088 0.009934109 0.012043658
-0.00835178 0.0023750481 -0.0037519142 -0.00084696227 -0.54351836 -0.0034437377 -0.0080307005 0.014392215
0.0013941689 0.00059639907 -0.004458967 0.05481694 0.0039564716 0.0029337713 -0.0070771878 0.017457204
-0.00026557443 -0.0059451577 -0.0046416167 -0.0026843618 0.002642309 -0.008775505 -0.0023047335 0.008765647
0.00080347486 -0.059439395 -0.00022005982 -0.008497745 0.0050576893 0.0039697494 -0.0061822548 0.03548117
0.029337082 -0.010662682 -0.011493539 0.0042101103 0.22491391 -0.0027438158 0.50338185 0.011038896
-0.004483664 0.0058349376 0.004987854 0.015889296 -0.13780558 -0.0032178634 0.0168735 -0.0037801482
0.0063693337 -0.030133434 -0.00725528 -0.00094525225 0.020393632 0.004891693 -0.11884247 0.0008771191
-0.005770191 0.013940876 -0.0018278182 -0.0019466572 -0.005201381 -0.0041994085 0.003617609 -0.021999883
0.0010363548 0.0020212897 -0.011523887 -0.007626095 -0.0070469636 0.00209373 0.008005554 -0.0005400075
0.0047630193 0.0013190183 -0.011569801 0.0014456948 -0.005032561 -8.974913e-05 -0.01133627 -0.0015334933
00000000: 2392 c73a 6e9d 9cbc f0b5 15bc b689 4a3b
00000010: b34e 3abb aa3c 73ba f067 be3a 98de 36bb
00000020: 8a6e 59bc cc67 6c3c 2305 313e f30a 5a3b
00000030: cfb6 f6bc 279a 653a 60fd 89bc 4fcd c33a
00000040: 3795 43bb 1917 d43b 28f4 403c 41c3 68ba
00000050: 57b2 cf3a 43b2 193c acc2 223c c352 453c
00000060: e7d5 08bc b2a6 1b3b ade2 75bb ad06 5eba
00000070: 0524 0bbf 55b0 61bb 3393 03bc 53cd 6b3c
00000080: 8cbc b63a aa57 1c3a 871c 92bb ba87 603d
00000090: 4aa5 813b 8444 403b c1e7 e7bb 6902 8f3c
000000a0: cc3c 8bb9 99cf c2bb b418 98bb 1eec 2fbb
000000b0: 972a 2d3b 23c7 0fbc 030b 17bb ca9d 0f3c
000000c0: 49a0 523a b976 73bd dcbf 66b9 203a 0bbc
000000d0: f9ba a53b ac14 823b 8394 cabb b454 113d
000000e0: 5254 f03c 88b2 2ebc 664f 3cbc f7f4 893b
000000f0: d54f 663e 97d1 33bb a2dd 003f 7cdc 343c
00000100: b3eb 92bb 0133 bf3b 2771 a33b 452a 823c
00000110: e81c 0dbe cae2 52bb 4b3a 8a3c 5dbc 77bb
00000120: d8b5 d03b 64da f6bc b3bd edbb ceca 77ba
00000130: 8c10 a73c 7f4a a03b ae63 f3bd 77ee 653a
00000140: df13 bdbb 4668 643c 6793 efba fa26 ffba
00000150: 5970 aabb 319b 89bb 6815 6d3b 1939 b4bc
00000160: 4cd6 873a 9d77 043b afce 3cbc 52e4 f9bb
00000170: 37ea e6bb f636 093b ba29 033c 4a8f 0dba
00000180: 1a13 9c3b e9e2 ac3a 438f 3dbc 787d bd3a
00000190: 2ee8 a4bb b337 bcb8 c3bb 39bc 7fff c8ba

property_network_module.4.weight f4 [1, 104]
-0.0089692045 -0.021744855 -0.0024419914 -0.02450819 -0.0054007736 0.00030760272 0.005487222 -0.0045553623
-0.001114996 -0.006256893 0.27066553 -0.0087371515 -0.00590299 0.0069529745 0.0059980126 0.010559928
0.0013778835 0.014970116 0.011281741 -0.0036457146 -0.0034350273 -0.0038410062 -0.0036781656 -0.003761126
-0.000140409 0.007315496 -0.021477062 -0.0043661175 0.65579545 -0.002072207 0.000994729 -0.0029647509
-0.012027701 -0.013063309 -0.01134218 0.030015398 0.0020054686 -0.0034471275 0.030194586 -0.010272733
-0.003761505 0.006521782 0.005506643 0.0035003866 -0.0046523805 0.0061423914 0.0033954529 0.018771816
0.005139463 0.15773346 -0.036754422 0.0061080903 -0.010425786 -0.012535641 -0.004430348 0.0055204188
-0.0018418052 0.01665517 0.007409824 -0.00023441498 0.12692843 0.0062913173 0.11089423 0.017509624
0.014121021 0.0016608563 -0.011894805 -0.017018417 0.22009848 0.0039817183 0.010884898 0.00868764
0.00261978 -0.0044519617 0.013508578 -0.0006208741 -0.011751801 -0.0009622021 -0.2938448 0.0075532747
-0.0015408016 -0.0125975665 -0.0024906127 0.0015911256 0.005069562 0.010488359 0.0061221328 -0.0021282434
0.015988821 -0.0017180694 -0.0009364366 0.30680934 0.009823185 -0.0012897435 0.0035280308 -0.0028359082
-0.00086179445 -0.0032070659 0.0006133726 -0.0061323987 -0.0040632063 -0.0038497178 -0.0032239757 0.0064260517
00000000: 92f3 12bc 4422 b2bc d109 20bb 66c5 c8bc
00000010: f9f8 b0bb bd45 a139 28ce b33b 2645 95bb
00000020: 0f25 92ba 9f06 cdbb ac94 8a3e 4526 0fbc
00000030: de6d c1bb c7d5 e33b fa8a c43b 8c03 2d3c
00000040: 199a b43a 3845 753c 0dd7 383c f1ec 6ebb
00000050: 321e 61bb 64b9 7bbb 610d 71bb 397d 76bb
00000060: c13a 13b9 d4b6 ef3b aaf0 afbc a611 8fbb
00000070: 36e2 273f ddcd 07bb 9161 823a 444c 42bb
00000080: d60f 45bc 7d07 56bc 8dd4 39bc dae2 f53c
00000090: 2e6e 033b 34e9 61bb a35a f73c f74e 28bc
000000a0: 9583 76bb acb4 d53b 1271 b43b be66 653b
000000b0: ff72 98bb 1d46 c93b 3f86 5e3b 5ac7 993c
000000c0: f168 a83b e184 213e ce8b 16bd 6026 c83b
000000d0: ead0 2abc 4a62 4dbc 742c 91bb a1e4 b43b
000000e0: ba68 f1ba 6c70 883c 1cce f23b 4bcd 75b9
000000f0: 87f9 013e 6527 ce3b 841c e33d 5870 8f3c
00000100: db5b 673c 17b1 d93a 6ee2 42bc 356a 8bbc
00000110: 7f61 613e 1379 823b 9256 323c 9a56 0e3c
00000120: 9db0 2b3b c3e1 91bb 1553 5d3c 28c2 22ba
00000130: a08a 40bc 4a3c 7cba d372 96be 7681 f73b
00000140: b9f4 c9ba 0666 4ebc 8c39 23bb 518d d03a
00000150: 911e a63b 5ed7 2b3c 2c9c c83b 007a 0bbb
00000160: fdfa 823c d830 e1ba 327b 75ba 1d16 9d3e
00000170: 6df1 203c 9c0c a9ba 8936 673b a5da 39bb
00000180: 0cea 61ba a32d 52bb bdca 203a 4af2 c8bb
00000190: a524 85bb 8c4b 7cbb 5649 53bb a191 d23b

property_network_module.5.weight f4 [1, 104]
-0.008247254 -0.02077526 0.0024397979 0.009834586 0.003364369 0.0043898597 0.00025771267 0.007830439
0.0026890833 -0.004539801 0.29438245 -0.009379191 0.029064402 0.008510833 0.0066877794 -0.00062087894
0.0023204305 0.0016653041 -0.0017922284 -0.013135604 0.0098349145 0.001981354 -0.005115143 -0.0022512844
-0.006363638 -0.0023381396 0.012535876 -0.0045183757 0.57908356 0.005630155 -0.003998196 -0.014441856
-0.00028609764 0.0047951373 -0.0005668257 0.09734797 0.0020239751 -0.0025832457 0.04649958 -0.009987417
-0.003983319 -0.009568404 0.00090896536 -0.0021452026 0.008997528 0.0013188691 0.0067066136 0.059561577
0.0009170565 0.19313025 -0.006375619 0.0004880565 0.010056265 0.0058058035 -0.013409879 -0.0077876095
0.0018117971 0.0026216714 0.02002348 -0.0043540723 0.014968205 0.004935989 -0.03138311 0.013161427
-0.004309271 0.00030515436 -0.0030769827 0.013551504 -0.55953157 -0.0036829908 -0.0047930093 -0.0011252639
-0.012938151 -0.050102074 -0.0017111535 0.0014711272 0.0072750365 0.0017877871 -0.20899472 -0.0051126513
-0.00505567 0.0026833557 -0.0010169559 -0.0020970807 -0.0013274793 0.0018879081 0.0004196525 0.010504049
0.0017646316 0.0022764406 0.0069385767 -0.03132526 0.012156112 0.0058892234 0.00036596408 -0.0039228247
0.001115278 0.0019978858 0.00270523 -0.00415541 0.0022299455 0.0017578155 -0.008434536 0.0030221043
00000000: 7e1f 07bc e130 aabc 04e5 1f3b 3e21 213c
00000010: bf7c 5c3b d0d8 8f3b 9c1d 8739 3e4b 003c
00000020: 553b 303b 9cc2 94bb 4cb9 963e 2eab 19bc
00000030: 7818 ee3c 0571 0b3c 2925 db3b 7bc2 22ba
00000040: 5d12 183b 5546 da3a 35e9 eaba b736 57bc
00000050: 9f22 213c 9bd9 013b ee9c a7bb 498a 13bb
00000060: 1186 d0bb 793b 19bb 4663 4d3c e20e 94bb
00000070: d23e 143f 2a7d b83b 4d03 83bb 899d 6cbc
00000080: 60ff 95b9 8720 9d3b 0797 14ba 5f5e c73d
00000090: aba4 043b ac4b 29bb 5876 3e3d 43a2 23bc
000000a0: 8086 82bb ccc4 1cbc a247 6e3a 8796 0cbb
000000b0: 5e6a 133c e7dd ac3a 27c3 db3b d7f6 733d
000000c0: 9f66 703a f0c3 453e 92ea d0bb d6e1 ff39
000000d0: 08c3 243c 9c3e be3b 1cb5 5bbc 342f ffbb
000000e0: d379 ed3a 59d0 2b3b 4808 a43c 9bac 8ebb
000000f0: 343d 753c 14be a13b 938b 00bd 07a3 573c
00000100: c934 8dbb 20fd 9f39 34a7 49bb 2107 5e3c
00000110: 763d 0fbf 555e 71bb ad0e 9dbb 977d 93ba
00000120: 8afa 53bc d537 4dbd c948 e0ba d6d2 c03a
00000130: 6e63 ee3b 2e54 ea3a b602 56be 0788 a7bb
00000140: 09aa a5bb 3ddb 2f3b 614b 85ba 2d6f 09bb
00000150: d0fe adba af73 f73a ce04 dc39 2d19 2c3c
00000160: 364b e73a 5630 153b 005d e33b ea4e 00bd
00000170: 6e2a 473c 63fa c03b dede bf39 0a8b 80bb
00000180: 852e 923a f6ee 023b 3a4a 313b 1b2a 88bb
00000190: 4724 123b 8066 e63a 0231 0abc 7f0e 463b

property_network_module.6.weight f4 [1, 104]
-0.009136025 0.009565152 0.009959349 0.0032047068 0.0005026909 0.009524196 0.0071832123 -0.0055045374
0.006110375 -0.0011693329 0.014724702 -0.008559207 -0.006470067 0.019329237 -0.0063702893 -0.0022942598
0.0053211125 0.008759556 -0.0017735349 0.0024715797 -0.0011461519 0.006745293 0.0032554136 -0.0029544719
0.00020114712 0.012825422 0.0018216262 0.0065039853 -0.41443595 -0.00071605504 0.00041594828 0.0019185975
0.0033251268 0.0038760698 -1.8729044e-05 -0.054906584 -0.00016056788 -0.008767473 -0.024026765 -0.0049839537
-0.0011126904 0.004333674 -0.0050820336 0.011193623 0.0032558842 -0.005892459 -0.0033630026 -0.00819187
0.00776648 -0.07092184 0.004676635 0.002837274 0.00028635957 0.0062874295 -0.0055675684 -0.008367119
0.003088163 0.0076086903 0.008096672 -0.006903218 1.0487697 -0.010344037 -0.33586916 -0.009613611
0.006606982 0.007980879 0.0020542406 -0.009575561 0.121315464 -0.0034707794 0.0032962572 -0.007947824
-0.0058685266 0.014764216 -0.00053418434 -0.012616513 -0.0011287233 0.0021542348 -0.2402921 -0.0028825642
-0.0014118007 -0.004760521 -0.00104949 0.005918403 0.0026660466 0.0038652204 0.008269861 0.0036598768
-0.001964177 0.008451555 0.0013182813 -0.012161037 0.010771069 -0.008474109 0.0028906327 0.001135379
0.0008330264 0.003086375 0.0033771088 0.012551803 0.005039021 0.004875387 -0.0009009852 -0.0011833437
00000000: 44af 15bc 28b7 1c3c 8a2c 233c 0f06 523b
00000010: 04c7 033a 600b 1c3c 2761 eb3b 685f b4bb
00000020: 8a39 c83b 4d44 99ba e03f 713c eb3b 0cbc
00000030: db02 d4bb 5958 9e3c dcbd d0bb 4b5b 16bb
00000040: ba5c ae3b 3e84 0f3c f575 e8ba 3afa 213b
00000050: 7a3a 96ba 9e07 dd3b c758 553b d09f 41bb
00000060: 05eb 5239 b821 523c a2c3 ee3a 621f d53b
00000070: f330 d4be a4b5 3bba a213 da39 7379 fb3a
00000080: 5fea 593b a905 7e3b 511c 9db7 bae5 60bd
00000090: 1d5e 28b9 72a5 0fbc c7d3 c4bc 6f50 a3bb
000000a0: b2d7 91ba 7e01 8e3b 3087 a6bb 7565 373c
000000b0: ac60 553b 8715 c1bb d265 5cbb 3137 06bc
000000c0: f57d fe3b 783f 91bd 753e 993b 8ff1 393b
000000d0: 8822 9639 c806 ce3b 2670 b6bb 3e16 09bc
000000e0: c762 4a3b 5252 f93b e7a7 043c 6434 e2bb
000000f0: 163e 863f 097a 29bc 0bf7 abbe 6882 1dbc
00000100: 627f d83b 3cc2 023c 70a0 063b d0e2 1cbc
00000110: 3e74 f83d 0476 63bb 0506 583b 9737 02bc
00000120: c54c c0bb 9ce5 713c 8108 0cba 7eb5 4ebc
00000130: abf1 93ba 102e 0d3b 220f 76be 67e9 3cbb
00000140: 2c0c b9ba 25fe 9bbb 0a8f 89ba 2aef c13b
00000150: d7b8 2e3b a34f 7d3b 507e 073c 8bda 6f3b
00000160: 6cb9 00bb 6478 0a3c 2eca ac3a 163f 47bc
00000170: 2379 303c fdd6 0abc c570 3d3b ffd0 943a
00000180: 755f 5a3a c844 4a3b 7c52 5d3b 14a6 4d3c
00000190: 5f1e a53b b6c1 9f3b 1830 6cba 6d1a 9bba

property_network_module.7.weight f4 [1, 104]
-0.005395459 0.026209025 0.0021544464 0.0071632424 -0.004553435 0.009793856 -0.0037075784 -0.0010386244
-0.0031437958 0.006562195 0.285665 -0.0067707975 -0.009085072 0.0059617334 0.006462383 0.009348984
-0.0009880286 -0.014165286 -0.019671692 -0.0016976777 0.0014481315 -0.0026894682 0.0009859029 -0.0024111976
1.5545429e-05 0.007340635 -0.0057338495 -0.0064553106 0.67734927 -0.0032614851 0.0032577403 -0.0022443854
0.010158768 -0.0031370665 -0.0044897026 -0.027689395 -0.0052109025 -0.0037771442 -0.08279811 0.0061982963
-0.00598154 0.006753711 0.0017313552 -0.00048151726 -0.0024161865 -0.00069160794 -0.0023778253 -0.03888694
-0.0012326923 0.22632311 0.02724679 0.0038046914 0.012834208 0.00936475 -0.0037684634 0.015031018
0.033570666 0.006130552 -0.016609002 0.004851128 0.06263494 -0.0011845949 0.11939702 -0.011729346
-0.003174448 -0.0017252555 0.022729138 0.008483576 0.19707072 0.0015518263 0.011057458 0.0046494035
0.011958622 -0.041468926 -0.02101129 -0.0046552275 0.0069530536 0.0014473231 -0.32596344 0.006524943
-0.0076306597 0.009345951 -0.0075146146 -0.0024677643 -0.0008105861 0.0007932037 0.008320708 -0.003606167
-0.0037712106 -0.004541744 0.0019296908 -0.32251233 0.004338947 -0.003203191 -6.5438726e-05 -0.0013549466
0.0055318507 -0.00022329246 0.0018188109 -0.004026064 -0.0058952714 0.0030881683 -0.0044296742 0.0018934434
00000000: 64cc b0bb 4fb4 d63c 9d31 0d3b a2b9 ea3b
00000010: fb34 95bb 6976 203c d8fa 72bb 7422 88ba
00000020: 2408 4ebb ae07 d73b af42 923e 91dd ddbb
00000030: 8ed9 14bc a55a c33b 66c2 d33b 7b2c 193c
00000040: bd80 81ba 8415 68bc 8726 a1bc 9c84 deba
00000050: 3bcf bd3a ca41 30bb 6939 813a 2f05 1ebb
00000060: 8e67 8237 b689 f03b 04e3 bbbb 1287 d3bb
00000070: c366 2d3f a4be 55bb d07f 553b 8a16 13bb
00000080: f670 263c 3e97 4dbb 5b1e 93bb dfd4 e2bc
00000090: 38c0 aabb f789 77bb 0e92 a9bd 141b cb3b
000000a0: cb00 c4bb 3c4e dd3b a4ee e23a 2774 fcb9
000000b0: e258 1ebb 064d 35ba 4ad5 1bbb e947 1fbd
000000c0: 4a92 a1ba 3fc1 673e a934 df3c 2158 793b
000000d0: 9246 523c 9c6e 193c 53f8 76bb a944 763c
000000e0: 6581 093d cce2 c83b 9a0f 88bc 36f6 9e3b
000000f0: bf46 803d 6944 9bba 6d86 f43d 712c 40bc
00000100: 660a 50bb f821 e2ba 7532 ba3c b2fe 0a3c
00000110: e8cc 493e a666 cb3a 572a 353c 065a 983b
00000120: 19ee 433c 52db 29bd de1f acbc e18a 98bb
00000130: 71d6 e33b 1bb4 bd3a aee4 a6be 30cf d53b
00000140: 9d0a fabb c21f 193c 283d f6bb 37ba 21bb
00000150: 837d 54ba 00ef 4f3a 9453 083c 7155 6cbb
00000160: 6a26 77bb e9d2 94bb aeed fc3a 5620 a5be
00000170: ba2d 8e3b a1ec 51bb 263c 89b8 7798 b1ba
00000180: 8744 b53b 9d23 6ab9 2b65 ee3a 13ed 83bb
00000190: 1f2d c1bb de62 4a3b cd26 91bb 6b2d f83a

property_network_module.8.weight f4 [1, 104]
-0.0070797065 0.011004161 -0.010693976 0.0016605565 0.0013056202 -0.017179202 0.004830845 0.003392339
-0.0021032547 0.009066895 0.33803165 -0.005129988 -0.015522251 0.0052482635 0.036929563 -0.00543301
0.0013244594 0.015276764 0.016813431 -0.0018399832 0.0048586903 0.0034828829 -0.00915985 -0.012593974
-0.004269864 -0.015836472 0.031285945 -0.024135528 0.2482382 -0.0034471685 -0.008659631 0.0013392442
-0.015832653 -0.0007427234 -0.0009290728 -0.010705505 -0.0013018535 0.007072333 -0.06951279 0.026433105
0.0020903542 -0.02120652 0.0024479418 -0.0047050556 -0.0007398693 -0.003714088 0.0016940524 -0.013776732
-0.006712462 -0.4867039 0.029387018 -0.0030044457 0.017955158 -0.015254503 -0.0021760992 -0.020928817
-0.19720766 -0.0015038103 -0.0025678396 0.0034705524 0.019098092 0.012758337 -0.022322252 -0.014003023
-0.019390201 0.0007998594 -0.00361046 -0.008999351 0.08505163 -0.011345939 0.008225517 -0.007632612
0.031025069 0.0597933 -0.0069941534 0.01215249 0.013280538 -0.01114379 0.12418157 -0.0015251781
-0.004155664 0.0019356349 -0.0024917605 -0.0075449888 0.005415617 -0.017197361 0.003009139 -0.022675022
-0.019122852 0.0016055272 -0.010753012 -0.03745221 0.0006263772 -0.0023394807 -0.008421309 -0.01126899
-0.0042302925 0.0029883313 0.0043387543 0.0007232898 -0.008326759 0.027904741 -0.017454453 0.0020096756
00000000: e2fc e7bb cc4a 343c c935 2fbc 08a7 d93a
00000010: 5821 ab3a 66bb 8cbc 114c 9e3b 0152 5e3b
00000020: c2d6 09bb 508d 143c 7c12 ad3e 7519 a8bb
00000030: 0a51 7ebc a0f9 ab3b 7443 173d 6407 b2bb
00000040: 7c99 ad3a 644b 7a3c 52bc 893c 972b f1ba
00000050: a635 9f3b 1441 643b 3213 16bc f556 4ebc
00000060: 37ea 8bbb 7dbb 81bc b125 003d dfb7 c5bc
00000070: 2832 7e3e e4e9 61bb 20e1 0dbc 9489 af3a
00000080: 7bb3 81bc 53b3 42ba 058d 73ba 2466 2fbc
00000090: f4a2 aaba 07bf e73b b95c 8ebd 3d8a d83c
000000a0: 53fe 083b 4cb9 adbc a66d 203b de2c 9abb
000000b0: caf3 41ba 0e68 73bb f70a de3a cdb7 61bc
000000c0: 36f4 dbbb 4131 f9be 0bbd f03c 3ce6 44bb
000000d0: b216 933c 06ee 79bc e39c 0ebb e972 abbc
000000e0: cef0 49be 801b c5ba 3349 28bb 3572 633b
000000f0: 9a73 9c3c 5808 513c 28dd b6bc ef6c 65bc
00000100: 33d8 9ebc a8ad 513a 789d 6cbb 0472 13bc
00000110: 8d2f ae3d 51e4 39bc 52c4 063c fd1a fabb
00000120: 4928 fe3c d2e9 743d 362f e5bb 3d1b 473c
00000130: 9d96 593c 7194 36bc e852 fe3d 7ce8 c7ba
00000140: 3c2c 88bb 21b5 fd3a ce4c 23bb f43b f7bb
00000150: 7d75 b13b 7be1 8cbc fa34 453b f8c0 b9bc
00000160: 87a7 9cbc 8e70 d23a 672d 30bc 7d67 19bd
00000170: 7633 243a f951 19bb 88f9 09bc 92a1 38bc
00000180: 449e 8abb e1d7 433b 1c2c 8e3b 289b 3d3a
00000190: f56c 08bc 7c98 e43c a4fc 8ebc c3b4 033b

property_network_module.9.weight f4 [1, 104]
-0.007920868 -0.00382055 -0.012612191 0.0038433208 -0.0024075944 0.020326637 0.006056253 0.0019629304
0.003059276 -0.011033132 0.18479653 -0.0009774336 0.009446345 0.0017548897 -0.024320375 0.0011616991
0.0047897026 -0.017800346 -0.022000125 -0.002584292 -0.00063445646 0.013715922 -0.0010363882 -0.0020916907
0.0063275513 -0.010432219 -0.03355455 0.016527198 0.26098847 -0.003633015 -0.011672467 -0.0025890174
0.013160342 -0.0032062386 -7.807219e-05 -0.24016862 0.009670192 0.0036854476 0.06161627 -0.0036092098
0.00904348 0.01844733 0.0017862256 -0.0018675481 -0.008224617 0.017132608 0.001183786 0.03232465
-0.00089223543 -0.97774833 -0.033606924 -0.005778082 -0.020693406 0.019629749 0.005145734 0.020689951
0.28764957 -0.007894014 -0.017298087 0.0072920662 -0.056024365 -0.0018463997 -0.05614498 0.007845853
0.013138939 0.0055200993 -0.001232903 -0.0068836426 -0.005980605 -0.0051946454 -0.013030128 -0.012190065
-0.0347815 -0.11789606 0.0014900273 -0.00496264 -0.020543382 0.0024675974 -0.22660896 -0.002041141
-0.008582074 0.0028032698 0.0052789464 -8.586505e-05 -0.0004655113 0.031912822 -0.0007495152 0.028315715
0.0328286 0.00037967513 -0.01001661 0.027314112 0.00015874954 0.00617265 -0.005784675 -0.011065665
0.0020353864 -0.0030151852 -0.0019602713 0.0022342645 0.0007952349 -0.024811616 -0.0104171485 0.0048333765
00000000: 87c6 01bc 3162 7abb 5da3 4ebc 39e0 7b3b
00000010: bbc8 1dbb 0c84 a63c 8873 c63b 82a4 003b
00000020: 227e 483b 4fc4 34bc 4d3b 3d3e 3b1d 80ba
00000030: d8c4 1a3c 5404 e63a 863b c7bc 2744 983a
00000040: f0f2 9c3b 08d2 91bc 9b39 b4bc 3a5d 29bb
00000050: a751 26ba bfb8 603c 6bd7 87ba bf14 09bb
00000060: 5957 cf3b e6eb 2abc 7f70 09bd 0c64 873c
00000070: 48a0 853e e117 6ebb e03d 3fbc 81ac 29bb
00000080: 7a9e 573c c21f 52bb b0ba a3b8 c3ee 75be
00000090: ba6f 1e3c 8d87 713b 5861 7c3d 7e88 6cbb
000000a0: 1b2b 143c db1e 973c c91f ea3a 84c8 f4ba
000000b0: 8bc0 06bc af59 8c3c 4429 9b3a da66 043d
000000c0: e8e4 69ba b74d 7abf 6aa7 09bd 1156 bdbb
000000d0: 3885 a9bc 91ce a03c 8c9d a83b f97d a93c
000000e0: ce46 933e e555 01bc b8b4 8dbc 49f2 ee3b
000000f0: ce79 65bd e502 f2ba 47f8 65bd e58b 003c
00000100: b444 573c f3e1 b43b 5c99 a1ba 2e90 e1bb
00000110: f3f8 c3bb d837 aabb 517c 55bc d7b8 47bc
00000120: 0c77 0ebd 7d73 f1bd 054d c33a a49d a2bb
00000130: 984a a8bc 6ab7 213b 2e0c 68be aac4 05bb
00000140: d49b 0cbc 10b7 373b 03fb ac3b 7312 b4b8
00000150: de0f f4b9 05b7 023d 1d7b 44ba 5cf6 e73c
00000160: 4877 063d 220f c739 b51c 24bc d8c1 df3c
00000170: 0176 2639 f143 ca3b 5f8d bdbb c34c 35bc
00000180: 1e64 053b 6a9a 45bb e577 00bb bd6c 123b
00000190: 5077 503a bb41 cbbc b0ac 2abc 4d61 9e3b

property_network_module.10.weight f4 [1, 104]
-0.0027627945 -0.002911946 -0.0026626354 -0.022734275 -0.008695274 -0.0050233724 -0.0034762088 0.0019100717
0.006428981 -0.0037871902 -0.4121544 0.002267184 -0.0017299957 0.0015455084 -0.011515971 0.0021136901
0.012647934 -0.013056385 -0.0041549094 -0.0050337496 -0.008268884 0.011403486 0.010372795 0.0075135576
0.02218891 0.0028550318 0.0030265697 -0.0059452015 -0.26774368 -0.0006746065 -0.006198638 -0.00258699
-0.0076171854 -0.0089252535 -0.0034561595 -0.11002492 0.009896669 -0.005079697 0.00033995914 0.0056748046
-0.003281477 -0.012382827 -0.00077250454 0.0035528254 -0.0014676155 -0.014588467 0.00015359989 -0.021815458
0.009024892 -0.117527515 0.016403642 -0.012294714 -3.7190348e-06 0.0005910139 -0.004527191 -0.009308554
-0.08395422 0.0053547686 0.009576131 0.013122792 -0.16172262 -0.012826784 -0.059468016 -0.011624509
-0.012377661 0.0005775013 -0.0010252317 -0.007296959 -0.06734294 0.0019362232 -0.003236862 0.001744969
-0.004695722 0.042034604 -0.0042003146 -0.0075235954 0.0017245061 0.008447995 -0.6451991 0.006961539
0.003589353 0.002533861 -0.0027667116 0.005633049 -0.010337127 -0.026403004 0.0011564369 -0.023721598
-0.013993733 0.013931286 -0.01115262 0.0076744272 0.006493235 -0.014027923 0.009700394 0.007408664
-0.006607818 -0.012128684 0.00079368363 0.0014167988 0.007301768 -0.019792577 0.0016248971 0.0035261575
00000000: 0010 35bb 59d6 3ebb 9c7f 2ebb 3b3d babc
00000010: 9f76 0ebc 1a9b a4bb 1bd1 63bb 5f5b fa3a
00000020: 34aa d23b 8232 78bb e705 d3be 0995 143b
00000030: 06c1 e2ba a892 ca3a 7cad 3cbc d685 0a3b
00000040: 4839 4f3c 73ea 55bc e825 88bb 27f2 a4bb
00000050: 377a 07bc b0d5 3a3c a8f2 293c 4a34 f63b
00000060: 84c5 b53c 7c1b 3b3b 6a59 463b f7cf c2bb
00000070: b315 89be 13d8 30ba f21d cbbb 7d8a 29bb
00000080: 9599 f9bb 3a3b 12bc bc80 62bb bf54 e1bd
00000090: a325 223c 9673 a6bb 8b3c b239 b6f3 b93b
000000a0: 0c0e 57bb 57e1 4abc e781 4aba 85d6 683b
000000b0: 015d c0ba 7704 6fbc a80f 2139 55b6 b2bc
000000c0: 24dd 133c 44b2 f0bd ee60 863c c56f 49bc
000000d0: 8894 79b6 45ee 1a3a d558 94bb e882 18bc
000000e0: 31f0 abbd 0e77 af3b 34e5 1c3c fb00 573c
000000f0: 9d9a 25be 6e27 52bc bc94 73bd b974 3ebc
00000100: accb 4abc 7563 173a 1161 86ba 541b efbb
00000110: 18eb 89bd dfc8 fd3a 8821 54bb 72b7 e43a
00000120: 92de 99bb 7a2c 2c3d cba2 89bb 7e88 f6bb
00000130: d308 e23a 7669 0a3c c52b 25bf 9f1d e43b
00000140: 5a3b 6b3b 220f 263b b851 35bb 7195 b83b
00000150: 0e5d 29bc 1d4b d8bc 9593 973a cc53 c2bc
00000160: f845 65bc 0c40 643c 7bb9 36bc c379 fb3b
00000170: 34c5 d43b 60d5 65bc 67ee 1e3c 61c4 f23b
00000180: 6586 d8bb 63b7 46bc 350f 503a e1b3 b93a
00000190: ab43 ef3b 0b24 a2bc 80fa d43a 1b17 673b
